…
│                     │                   │            │ conv2d_13[0][0]   │
├─────────────────────┼───────────────────┼────────────┼───────────────────┤
│ conv2d_14 (Conv2D)  │ (None, 17, 17,    │  4,719,104 │ concatenate_1[0]… │
│                     │ 512)              │            │                   │
├─────────────────────┼───────────────────┼────────────┼───────────────────┤
│ batch_normalizatio… │ (None, 17, 17,    │      2,048 │ conv2d_14[0][0]   │
│ (BatchNormalizatio… │ 512)              │            │                   │
├─────────────────────┼───────────────────┼────────────┼───────────────────┤
│ max_pooling2d_3     │ (None, 6, 6, 512) │          0 │ batch_normalizat… │
│ (MaxPooling2D)      │                   │            │                   │
├─────────────────────┼───────────────────┼────────────┼───────────────────┤
│ conv2d_16 (Conv2D)  │ (None, 6, 6, 256) │    131,328 │ max_pooling2d_3[… │
├─────────────────────┼───────────────────┼────────────┼───────────────────┤
│ conv2d_18 (Conv2D)  │ (None, 6, 6, 256) │    131,328 │ max_pooling2d_3[… │
├─────────────────────┼───────────────────┼────────────┼───────────────────┤
│ max_pooling2d_4     │ (None, 6, 6, 512) │          0 │ max_pooling2d_3[… │
│ (MaxPooling2D)      │                   │            │                   │
├─────────────────────┼───────────────────┼────────────┼───────────────────┤
│ conv2d_15 (Conv2D)  │ (None, 6, 6, 256) │    131,328 │ max_pooling2d_3[… │
├─────────────────────┼───────────────────┼────────────┼───────────────────┤
│ conv2d_17 (Conv2D)  │ (None, 6, 6, 256) │    590,080 │ conv2d_16[0][0]   │
├─────────────────────┼───────────────────┼────────────┼───────────────────┤
│ conv2d_19 (Conv2D)  │ (None, 6, 6, 256) │  1,638,656 │ conv2d_18[0][0]   │
├─────────────────────┼───────────────────┼────────────┼───────────────────┤
│ conv2d_20 (Conv2D)  │ (None, 6, 6, 256) │    131,328 │ max_pooling2d_4[… │
├─────────────────────┼───────────────────┼────────────┼───────────────────┤
│ concatenate_2       │ (None, 6, 6,      │          0 │ conv2d_15[0][0],  │
│ (Concatenate)       │ 1024)             │            │ conv2d_17[0][0],  │
│                     │                   │            │ conv2d_19[0][0],  │
│                     │                   │            │ conv2d_20[0][0]   │
├─────────────────────┼───────────────────┼────────────┼───────────────────┤
│ conv2d_21 (Conv2D)  │ (None, 6, 6, 256) │  2,359,552 │ concatenate_2[0]… │
├─────────────────────┼───────────────────┼────────────┼───────────────────┤
│ batch_normalizatio… │ (None, 6, 6, 256) │      1,024 │ conv2d_21[0][0]   │
│ (BatchNormalizatio… │                   │            │                   │
├─────────────────────┼───────────────────┼────────────┼───────────────────┤
│ max_pooling2d_5     │ (None, 2, 2, 256) │          0 │ batch_normalizat… │
│ (MaxPooling2D)      │                   │            │                   │
├─────────────────────┼───────────────────┼────────────┼───────────────────┤
│ conv2d_23 (Conv2D)  │ (None, 2, 2, 256) │     65,792 │ max_pooling2d_5[… │
├─────────────────────┼───────────────────┼────────────┼───────────────────┤
│ conv2d_25 (Conv2D)  │ (None, 2, 2, 256) │     65,792 │ max_pooling2d_5[… │
├─────────────────────┼───────────────────┼────────────┼───────────────────┤
│ max_pooling2d_6     │ (None, 2, 2, 256) │          0 │ max_pooling2d_5[… │
│ (MaxPooling2D)      │                   │            │                   │
├─────────────────────┼───────────────────┼────────────┼───────────────────┤
│ conv2d_22 (Conv2D)  │ (None, 2, 2, 256) │     65,792 │ max_pooling2d_5[… │
├─────────────────────┼───────────────────┼────────────┼───────────────────┤
│ conv2d_24 (Conv2D)  │ (None, 2, 2, 256) │    590,080 │ conv2d_23[0][0]   │
├─────────────────────┼───────────────────┼────────────┼───────────────────┤
│ conv2d_26 (Conv2D)  │ (None, 2, 2, 256) │  1,638,656 │ conv2d_25[0][0]   │
├─────────────────────┼───────────────────┼────────────┼───────────────────┤
│ conv2d_27 (Conv2D)  │ (None, 2, 2, 256) │     65,792 │ max_pooling2d_6[… │
├─────────────────────┼───────────────────┼────────────┼───────────────────┤
│ concatenate_3       │ (None, 2, 2,      │          0 │ conv2d_22[0][0],  │
│ (Concatenate)       │ 1024)             │            │ conv2d_24[0][0],  │
│                     │                   │            │ conv2d_26[0][0],  │
│                     │                   │            │ conv2d_27[0][0]   │
├─────────────────────┼───────────────────┼────────────┼───────────────────┤
│ conv2d_28 (Conv2D)  │ (None, 2, 2, 512) │  4,719,104 │ concatenate_3[0]… │
├─────────────────────┼───────────────────┼────────────┼───────────────────┤
│ batch_normalizatio… │ (None, 2, 2, 512) │      2,048 │ conv2d_28[0][0]   │
│ (BatchNormalizatio… │                   │            │                   │
├─────────────────────┼───────────────────┼────────────┼───────────────────┤
│ max_pooling2d_7     │ (None, 1, 1, 512) │          0 │ batch_normalizat… │
│ (MaxPooling2D)      │                   │            │                   │
├─────────────────────┼───────────────────┼────────────┼───────────────────┤
│ flatten (Flatten)   │ (None, 512)       │          0 │ max_pooling2d_7[… │
├─────────────────────┼───────────────────┼────────────┼───────────────────┤
│ dropout (Dropout)   │ (None, 512)       │          0 │ flatten[0][0]     │
├─────────────────────┼───────────────────┼────────────┼───────────────────┤
│ ctrl (Dense)        │ (None, 432)       │    221,616 │ dropout[0][0]     │
├─────────────────────┼───────────────────┼────────────┼───────────────────┤
│ ctrl_net (Reshape)  │ (None, 12, 12, 3) │          0 │ ctrl[0][0]        │
└─────────────────────┴───────────────────┴────────────┴───────────────────┘
 Total params: 20,087,728 (76.63 MB)
 Trainable params: 20,084,912 (76.62 MB)
 Non-trainable params: 2,816 (11.00 KB)
2025-09-13 21:33:42.402101: I tensorflow/core/kernels/data/tf_record_dataset_op.cc:381] TFRecordDataset `buffer_size` is unspecified, default to 262144
2025-09-13 21:33:52.380162: I tensorflow/core/kernels/data/shuffle_dataset_op.cc:452] ShuffleDatasetV3:2: Filling up shuffle buffer (this may take a while): 122362 of 150000
…
