…
│                     │                   │            │ conv2d_17[0][0]   │
├─────────────────────┼───────────────────┼────────────┼───────────────────┤
│ conv2d_18 (Conv2D)  │ (None, 17, 17,    │  5,898,752 │ concatenate_1[0]… │
│                     │ 512)              │            │                   │
├─────────────────────┼───────────────────┼────────────┼───────────────────┤
│ batch_normalizatio… │ (None, 17, 17,    │      2,048 │ conv2d_18[0][0]   │
│ (BatchNormalizatio… │ 512)              │            │                   │
├─────────────────────┼───────────────────┼────────────┼───────────────────┤
│ max_pooling2d_3     │ (None, 6, 6, 512) │          0 │ batch_normalizat… │
│ (MaxPooling2D)      │                   │            │                   │
├─────────────────────┼───────────────────┼────────────┼───────────────────┤
│ max_pooling2d_4     │ (None, 6, 6, 512) │          0 │ max_pooling2d_3[… │
│ (MaxPooling2D)      │                   │            │                   │
├─────────────────────┼───────────────────┼────────────┼───────────────────┤
│ conv2d_20 (Conv2D)  │ (None, 6, 6, 256) │    131,328 │ max_pooling2d_3[… │
├─────────────────────┼───────────────────┼────────────┼───────────────────┤
│ conv2d_22 (Conv2D)  │ (None, 6, 6, 256) │    131,328 │ max_pooling2d_3[… │
├─────────────────────┼───────────────────┼────────────┼───────────────────┤
│ conv2d_24 (Conv2D)  │ (None, 6, 6, 256) │    131,328 │ max_pooling2d_4[… │
├─────────────────────┼───────────────────┼────────────┼───────────────────┤
│ conv2d_19 (Conv2D)  │ (None, 6, 6, 256) │    131,328 │ max_pooling2d_3[… │
├─────────────────────┼───────────────────┼────────────┼───────────────────┤
│ conv2d_21 (Conv2D)  │ (None, 6, 6, 256) │    590,080 │ conv2d_20[0][0]   │
├─────────────────────┼───────────────────┼────────────┼───────────────────┤
│ conv2d_23 (Conv2D)  │ (None, 6, 6, 256) │  1,638,656 │ conv2d_22[0][0]   │
├─────────────────────┼───────────────────┼────────────┼───────────────────┤
│ conv2d_26 (Conv2D)  │ (None, 6, 6, 256) │    590,080 │ conv2d_24[0][0]   │
├─────────────────────┼───────────────────┼────────────┼───────────────────┤
│ concatenate_2       │ (None, 6, 6,      │          0 │ conv2d_19[0][0],  │
│ (Concatenate)       │ 1280)             │            │ conv2d_21[0][0],  │
│                     │                   │            │ conv2d_23[0][0],  │
│                     │                   │            │ conv2d_24[0][0],  │
│                     │                   │            │ conv2d_26[0][0]   │
├─────────────────────┼───────────────────┼────────────┼───────────────────┤
│ conv2d_27 (Conv2D)  │ (None, 6, 6, 256) │  2,949,376 │ concatenate_2[0]… │
├─────────────────────┼───────────────────┼────────────┼───────────────────┤
│ batch_normalizatio… │ (None, 6, 6, 256) │      1,024 │ conv2d_27[0][0]   │
│ (BatchNormalizatio… │                   │            │                   │
├─────────────────────┼───────────────────┼────────────┼───────────────────┤
│ max_pooling2d_5     │ (None, 2, 2, 256) │          0 │ batch_normalizat… │
│ (MaxPooling2D)      │                   │            │                   │
├─────────────────────┼───────────────────┼────────────┼───────────────────┤
│ max_pooling2d_6     │ (None, 2, 2, 256) │          0 │ max_pooling2d_5[… │
│ (MaxPooling2D)      │                   │            │                   │
├─────────────────────┼───────────────────┼────────────┼───────────────────┤
│ conv2d_29 (Conv2D)  │ (None, 2, 2, 256) │     65,792 │ max_pooling2d_5[… │
├─────────────────────┼───────────────────┼────────────┼───────────────────┤
│ conv2d_31 (Conv2D)  │ (None, 2, 2, 256) │     65,792 │ max_pooling2d_5[… │
├─────────────────────┼───────────────────┼────────────┼───────────────────┤
│ conv2d_33 (Conv2D)  │ (None, 2, 2, 256) │     65,792 │ max_pooling2d_6[… │
├─────────────────────┼───────────────────┼────────────┼───────────────────┤
│ conv2d_28 (Conv2D)  │ (None, 2, 2, 256) │     65,792 │ max_pooling2d_5[… │
├─────────────────────┼───────────────────┼────────────┼───────────────────┤
│ conv2d_30 (Conv2D)  │ (None, 2, 2, 256) │    590,080 │ conv2d_29[0][0]   │
├─────────────────────┼───────────────────┼────────────┼───────────────────┤
│ conv2d_32 (Conv2D)  │ (None, 2, 2, 256) │  1,638,656 │ conv2d_31[0][0]   │
├─────────────────────┼───────────────────┼────────────┼───────────────────┤
│ conv2d_35 (Conv2D)  │ (None, 2, 2, 256) │    590,080 │ conv2d_33[0][0]   │
├─────────────────────┼───────────────────┼────────────┼───────────────────┤
│ concatenate_3       │ (None, 2, 2,      │          0 │ conv2d_28[0][0],  │
│ (Concatenate)       │ 1280)             │            │ conv2d_30[0][0],  │
│                     │                   │            │ conv2d_32[0][0],  │
│                     │                   │            │ conv2d_33[0][0],  │
│                     │                   │            │ conv2d_35[0][0]   │
├─────────────────────┼───────────────────┼────────────┼───────────────────┤
│ conv2d_36 (Conv2D)  │ (None, 2, 2, 512) │  5,898,752 │ concatenate_3[0]… │
├─────────────────────┼───────────────────┼────────────┼───────────────────┤
│ batch_normalizatio… │ (None, 2, 2, 512) │      2,048 │ conv2d_36[0][0]   │
│ (BatchNormalizatio… │                   │            │                   │
├─────────────────────┼───────────────────┼────────────┼───────────────────┤
│ max_pooling2d_7     │ (None, 1, 1, 512) │          0 │ batch_normalizat… │
│ (MaxPooling2D)      │                   │            │                   │
├─────────────────────┼───────────────────┼────────────┼───────────────────┤
│ flatten (Flatten)   │ (None, 512)       │          0 │ max_pooling2d_7[… │
├─────────────────────┼───────────────────┼────────────┼───────────────────┤
│ dropout (Dropout)   │ (None, 512)       │          0 │ flatten[0][0]     │
├─────────────────────┼───────────────────┼────────────┼───────────────────┤
│ ctrl (Dense)        │ (None, 432)       │    221,616 │ dropout[0][0]     │
├─────────────────────┼───────────────────┼────────────┼───────────────────┤
│ ctrl_net (Reshape)  │ (None, 12, 12, 3) │          0 │ ctrl[0][0]        │
└─────────────────────┴───────────────────┴────────────┴───────────────────┘
 Total params: 24,917,744 (95.05 MB)
 Trainable params: 24,914,928 (95.04 MB)
 Non-trainable params: 2,816 (11.00 KB)
2025-08-13 13:23:48.756367: I tensorflow/core/kernels/data/tf_record_dataset_op.cc:381] TFRecordDataset `buffer_size` is unspecified, default to 262144
Epoch 1/30
I0000 00:00:1755084245.506888 2161678 cuda_dnn.cc:529] Loaded cuDNN version 90501
…
