…
2025-08-12 13:43:38.322323: I tensorflow/core/common_runtime/gpu/gpu_device.cc:1639] Created device /job:localhost/replica:0/task:0/device:GPU:6 with 9615 MB memory:  -> device: 6, name: NVIDIA GeForce RTX 2080 Ti, pci bus id: 0000:43:00.0, compute capability: 7.5
Train shards: 133 Val shards: 34
Model: "model"
__________________________________________________________________________________________________
 Layer (type)                Output Shape                 Param #   Connected to                  
==================================================================================================
 input_1 (InputLayer)        [(None, 50, 50, 3)]          0         []                            
                                                                                                  
 conv2d (Conv2D)             (None, 50, 50, 128)          9728      ['input_1[0][0]']             
                                                                                                  
 conv2d_2 (Conv2D)           (None, 50, 50, 64)           8256      ['conv2d[0][0]']              
                                                                                                  
 conv2d_4 (Conv2D)           (None, 50, 50, 64)           8256      ['conv2d[0][0]']              
                                                                                                  
 max_pooling2d (MaxPooling2  (None, 50, 50, 128)          0         ['conv2d[0][0]']              
 D)                                                                                               
                                                                                                  
 conv2d_1 (Conv2D)           (None, 50, 50, 64)           8256      ['conv2d[0][0]']              
                                                                                                  
 conv2d_3 (Conv2D)           (None, 50, 50, 64)           36928     ['conv2d_2[0][0]']            
                                                                                                  
 conv2d_5 (Conv2D)           (None, 50, 50, 64)           102464    ['conv2d_4[0][0]']            
                                                                                                  
 conv2d_6 (Conv2D)           (None, 50, 50, 64)           8256      ['max_pooling2d[0][0]']       
                                                                                                  
 concatenate (Concatenate)   (None, 50, 50, 256)          0         ['conv2d_1[0][0]',            
                                                                     'conv2d_3[0][0]',            
                                                                     'conv2d_5[0][0]',            
                                                                     'conv2d_6[0][0]']            
                                                                                                  
 conv2d_7 (Conv2D)           (None, 50, 50, 256)          590080    ['concatenate[0][0]']         
                                                                                                  
 batch_normalization (Batch  (None, 50, 50, 256)          1024      ['conv2d_7[0][0]']            
 Normalization)                                                                                   
                                                                                                  
 max_pooling2d_1 (MaxPoolin  (None, 17, 17, 256)          0         ['batch_normalization[0][0]'] 
 g2D)                                                                                             
                                                                                                  
 conv2d_9 (Conv2D)           (None, 17, 17, 512)          131584    ['max_pooling2d_1[0][0]']     
                                                                                                  
 conv2d_11 (Conv2D)          (None, 17, 17, 512)          131584    ['max_pooling2d_1[0][0]']     
                                                                                                  
 max_pooling2d_2 (MaxPoolin  (None, 17, 17, 256)          0         ['max_pooling2d_1[0][0]']     
 g2D)                                                                                             
                                                                                                  
 conv2d_8 (Conv2D)           (None, 17, 17, 512)          131584    ['max_pooling2d_1[0][0]']     
                                                                                                  
 conv2d_10 (Conv2D)          (None, 17, 17, 512)          2359808   ['conv2d_9[0][0]']            
                                                                                                  
 conv2d_12 (Conv2D)          (None, 17, 17, 512)          6554112   ['conv2d_11[0][0]']           
                                                                                                  
 conv2d_13 (Conv2D)          (None, 17, 17, 512)          131584    ['max_pooling2d_2[0][0]']     
                                                                                                  
 concatenate_1 (Concatenate  (None, 17, 17, 2048)         0         ['conv2d_8[0][0]',            
 )                                                                   'conv2d_10[0][0]',           
                                                                     'conv2d_12[0][0]',           
                                                                     'conv2d_13[0][0]']           
                                                                                                  
 conv2d_14 (Conv2D)          (None, 17, 17, 512)          9437696   ['concatenate_1[0][0]']       
                                                                                                  
 batch_normalization_1 (Bat  (None, 17, 17, 512)          2048      ['conv2d_14[0][0]']           
 chNormalization)                                                                                 
                                                                                                  
 max_pooling2d_3 (MaxPoolin  (None, 6, 6, 512)            0         ['batch_normalization_1[0][0]'
 g2D)                                                               ]                             
                                                                                                  
 conv2d_16 (Conv2D)          (None, 6, 6, 512)            262656    ['max_pooling2d_3[0][0]']     
                                                                                                  
 conv2d_18 (Conv2D)          (None, 6, 6, 512)            262656    ['max_pooling2d_3[0][0]']     
                                                                                                  
 max_pooling2d_4 (MaxPoolin  (None, 6, 6, 512)            0         ['max_pooling2d_3[0][0]']     
 g2D)                                                                                             
                                                                                                  
 conv2d_15 (Conv2D)          (None, 6, 6, 512)            262656    ['max_pooling2d_3[0][0]']     
                                                                                                  
 conv2d_17 (Conv2D)          (None, 6, 6, 512)            2359808   ['conv2d_16[0][0]']           
                                                                                                  
 conv2d_19 (Conv2D)          (None, 6, 6, 512)            6554112   ['conv2d_18[0][0]']           
                                                                                                  
 conv2d_20 (Conv2D)          (None, 6, 6, 512)            262656    ['max_pooling2d_4[0][0]']     
                                                                                                  
 concatenate_2 (Concatenate  (None, 6, 6, 2048)           0         ['conv2d_15[0][0]',           
 )                                                                   'conv2d_17[0][0]',           
                                                                     'conv2d_19[0][0]',           
                                                                     'conv2d_20[0][0]']           
                                                                                                  
 conv2d_21 (Conv2D)          (None, 6, 6, 256)            4718848   ['concatenate_2[0][0]']       
                                                                                                  
 batch_normalization_2 (Bat  (None, 6, 6, 256)            1024      ['conv2d_21[0][0]']           
 chNormalization)                                                                                 
                                                                                                  
 max_pooling2d_5 (MaxPoolin  (None, 2, 2, 256)            0         ['batch_normalization_2[0][0]'
 g2D)                                                               ]                             
                                                                                                  
 conv2d_23 (Conv2D)          (None, 2, 2, 512)            131584    ['max_pooling2d_5[0][0]']     
                                                                                                  
 conv2d_25 (Conv2D)          (None, 2, 2, 512)            131584    ['max_pooling2d_5[0][0]']     
                                                                                                  
 max_pooling2d_6 (MaxPoolin  (None, 2, 2, 256)            0         ['max_pooling2d_5[0][0]']     
 g2D)                                                                                             
                                                                                                  
 conv2d_22 (Conv2D)          (None, 2, 2, 512)            131584    ['max_pooling2d_5[0][0]']     
                                                                                                  
 conv2d_24 (Conv2D)          (None, 2, 2, 512)            2359808   ['conv2d_23[0][0]']           
                                                                                                  
 conv2d_26 (Conv2D)          (None, 2, 2, 512)            6554112   ['conv2d_25[0][0]']           
                                                                                                  
 conv2d_27 (Conv2D)          (None, 2, 2, 512)            131584    ['max_pooling2d_6[0][0]']     
                                                                                                  
 concatenate_3 (Concatenate  (None, 2, 2, 2048)           0         ['conv2d_22[0][0]',           
 )                                                                   'conv2d_24[0][0]',           
                                                                     'conv2d_26[0][0]',           
                                                                     'conv2d_27[0][0]']           
                                                                                                  
 conv2d_28 (Conv2D)          (None, 2, 2, 512)            9437696   ['concatenate_3[0][0]']       
                                                                                                  
 batch_normalization_3 (Bat  (None, 2, 2, 512)            2048      ['conv2d_28[0][0]']           
 chNormalization)                                                                                 
                                                                                                  
 max_pooling2d_7 (MaxPoolin  (None, 1, 1, 512)            0         ['batch_normalization_3[0][0]'
 g2D)                                                               ]                             
                                                                                                  
 conv2d_30 (Conv2D)          (None, 1, 1, 512)            262656    ['max_pooling2d_7[0][0]']     
                                                                                                  
 conv2d_32 (Conv2D)          (None, 1, 1, 512)            262656    ['max_pooling2d_7[0][0]']     
                                                                                                  
 max_pooling2d_8 (MaxPoolin  (None, 1, 1, 512)            0         ['max_pooling2d_7[0][0]']     
 g2D)                                                                                             
                                                                                                  
 conv2d_29 (Conv2D)          (None, 1, 1, 512)            262656    ['max_pooling2d_7[0][0]']     
                                                                                                  
 conv2d_31 (Conv2D)          (None, 1, 1, 512)            2359808   ['conv2d_30[0][0]']           
                                                                                                  
 conv2d_33 (Conv2D)          (None, 1, 1, 512)            6554112   ['conv2d_32[0][0]']           
                                                                                                  
 conv2d_34 (Conv2D)          (None, 1, 1, 512)            262656    ['max_pooling2d_8[0][0]']     
                                                                                                  
 concatenate_4 (Concatenate  (None, 1, 1, 2048)           0         ['conv2d_29[0][0]',           
 )                                                                   'conv2d_31[0][0]',           
                                                                     'conv2d_33[0][0]',           
                                                                     'conv2d_34[0][0]']           
                                                                                                  
 conv2d_35 (Conv2D)          (None, 1, 1, 1024)           1887539   ['concatenate_4[0][0]']       
                                                          2                                       
                                                                                                  
 batch_normalization_4 (Bat  (None, 1, 1, 1024)           4096      ['conv2d_35[0][0]']           
 chNormalization)                                                                                 
                                                                                                  
 max_pooling2d_9 (MaxPoolin  (None, 1, 1, 1024)           0         ['batch_normalization_4[0][0]'
 g2D)                                                               ]                             
                                                                                                  
 flatten (Flatten)           (None, 1024)                 0         ['max_pooling2d_9[0][0]']     
                                                                                                  
 ctrl1 (Dense)               (None, 1296)                 1328400   ['flatten[0][0]']             
                                                                                                  
 ctrl0 (Dense)               (None, 864)                  1120608   ['ctrl1[0][0]']               
                                                                                                  
 ctrl (Dense)                (None, 432)                  373680    ['ctrl0[0][0]']               
                                                                                                  
 ctrl_net (Reshape)          (None, 12, 12, 3)            0         ['ctrl[0][0]']                
                                                                                                  
==================================================================================================
Total params: 84884384 (323.81 MB)
Trainable params: 84879264 (323.79 MB)
Non-trainable params: 5120 (20.00 KB)
__________________________________________________________________________________________________
…
