…
I0000 00:00:1750440725.684661  181322 gpu_device.cc:2019] Created device /job:localhost/replica:0/task:0/device:GPU:1 with 46551 MB memory:  -> device: 1, name: NVIDIA RTX 6000 Ada Generation, pci bus id: 0000:61:00.0, compute capability: 8.9
Total parameters: 18,217,260
Trainable parameters: 18,217,260
Detailed summary with torchinfo:
==========================================================================================
Layer (type:depth-idx)                   Output Shape              Param #
==========================================================================================
PointNet2SurfaceRegressor                [1, 10, 10, 3]            --
├─Sequential: 1-1                        [1, 256, 1225]            --
│    └─Conv1d: 2-1                       [1, 128, 1225]            384
│    └─BatchNorm1d: 2-2                  [1, 128, 1225]            256
│    └─ReLU: 2-3                         [1, 128, 1225]            --
│    └─Conv1d: 2-4                       [1, 128, 1225]            16,384
│    └─BatchNorm1d: 2-5                  [1, 128, 1225]            256
│    └─ReLU: 2-6                         [1, 128, 1225]            --
│    └─Conv1d: 2-7                       [1, 256, 1225]            32,768
│    └─BatchNorm1d: 2-8                  [1, 256, 1225]            512
│    └─ReLU: 2-9                         [1, 256, 1225]            --
├─PointNetSetAbstractionKNN: 1-2         [1, 3, 612]               --
│    └─ModuleList: 2-10                  --                        --
│    │    └─Sequential: 3-1              [1, 128, 612, 64]         33,408
│    │    └─Sequential: 3-2              [1, 128, 612, 64]         16,640
│    │    └─Sequential: 3-3              [1, 256, 612, 64]         33,280
│    │    └─Sequential: 3-4              [1, 256, 612, 64]         66,048
├─PointNetSetAbstractionKNN: 1-3         [1, 3, 306]               --
│    └─ModuleList: 2-11                  --                        --
│    │    └─Sequential: 3-5              [1, 256, 306, 64]         66,816
│    │    └─Sequential: 3-6              [1, 256, 306, 64]         66,048
│    │    └─Sequential: 3-7              [1, 512, 306, 64]         132,096
│    │    └─Sequential: 3-8              [1, 512, 306, 64]         263,168
├─PointNetSetAbstractionKNN: 1-4         [1, 3, 76]                --
│    └─ModuleList: 2-12                  --                        --
│    │    └─Sequential: 3-9              [1, 512, 76, 64]          264,704
│    │    └─Sequential: 3-10             [1, 512, 76, 64]          263,168
│    │    └─Sequential: 3-11             [1, 1024, 76, 64]         526,336
│    │    └─Sequential: 3-12             [1, 1024, 76, 64]         1,050,624
├─PointNetSetAbstractionKNN: 1-5         [1, 3, 38]                --
│    └─ModuleList: 2-13                  --                        --
│    │    └─Sequential: 3-13             [1, 1024, 38, 64]         1,053,696
│    │    └─Sequential: 3-14             [1, 1024, 38, 64]         1,050,624
│    │    └─Sequential: 3-15             [1, 2048, 38, 64]         2,101,248
│    │    └─Sequential: 3-16             [1, 2048, 38, 64]         4,198,400
├─Sequential: 1-6                        [1, 512]                  --
│    └─Linear: 2-14                      [1, 2048]                 4,196,352
│    └─ReLU: 2-15                        [1, 2048]                 --
│    └─BatchNorm1d: 2-16                 [1, 2048]                 4,096
│    └─Dropout: 2-17                     [1, 2048]                 --
│    └─Linear: 2-18                      [1, 1024]                 2,098,176
│    └─ReLU: 2-19                        [1, 1024]                 --
│    └─BatchNorm1d: 2-20                 [1, 1024]                 2,048
│    └─Dropout: 2-21                     [1, 1024]                 --
│    └─Linear: 2-22                      [1, 512]                  524,800
│    └─ReLU: 2-23                        [1, 512]                  --
│    └─BatchNorm1d: 2-24                 [1, 512]                  1,024
│    └─Dropout: 2-25                     [1, 512]                  --
├─Linear: 1-7                            [1, 300]                  153,900
==========================================================================================
Total params: 18,217,260
Trainable params: 18,217,260
Non-trainable params: 0
Total mult-adds (Units.GIGABYTES): 46.76
==========================================================================================
Input size (MB): 0.01
Forward/backward pass size (MB): 1450.84
Params size (MB): 72.87
Estimated Total Size (MB): 1523.72
…
