…
I0000 00:00:1750416531.417959 2781304 gpu_device.cc:2019] Created device /job:localhost/replica:0/task:0/device:GPU:1 with 46551 MB memory:  -> device: 1, name: NVIDIA RTX 6000 Ada Generation, pci bus id: 0000:61:00.0, compute capability: 8.9
Total parameters: 3,130,476
Trainable parameters: 3,130,476
Detailed summary with torchinfo:
==========================================================================================
Layer (type:depth-idx)                   Output Shape              Param #
==========================================================================================
PointNet2SurfaceRegressor                [1, 10, 10, 3]            --
├─PointNetSetAbstractionKNN: 1-1         [1, 3, 612]               --
│    └─ModuleList: 2-1                   --                        --
│    │    └─Sequential: 3-1              [1, 64, 612, 32]          320
│    │    └─Sequential: 3-2              [1, 64, 612, 32]          4,224
│    │    └─Sequential: 3-3              [1, 128, 612, 32]         8,448
├─PointNetSetAbstractionKNN: 1-2         [1, 3, 306]               --
│    └─ModuleList: 2-2                   --                        --
│    │    └─Sequential: 3-4              [1, 128, 306, 32]         17,024
│    │    └─Sequential: 3-5              [1, 128, 306, 32]         16,640
│    │    └─Sequential: 3-6              [1, 256, 306, 32]         33,280
├─PointNetSetAbstractionKNN: 1-3         [1, 3, 76]                --
│    └─ModuleList: 2-3                   --                        --
│    │    └─Sequential: 3-7              [1, 256, 76, 32]          66,816
│    │    └─Sequential: 3-8              [1, 256, 76, 32]          66,048
│    │    └─Sequential: 3-9              [1, 512, 76, 32]          132,096
├─PointNetSetAbstractionKNN: 1-4         [1, 3, 38]                --
│    └─ModuleList: 2-4                   --                        --
│    │    └─Sequential: 3-10             [1, 512, 38, 32]          264,704
│    │    └─Sequential: 3-11             [1, 512, 38, 32]          263,168
│    │    └─Sequential: 3-12             [1, 1024, 38, 32]         526,336
├─Sequential: 1-5                        [1, 512]                  --
│    └─Linear: 2-5                       [1, 1024]                 1,049,600
│    └─ReLU: 2-6                         [1, 1024]                 --
│    └─BatchNorm1d: 2-7                  [1, 1024]                 2,048
│    └─Dropout: 2-8                      [1, 1024]                 --
│    └─Linear: 2-9                       [1, 512]                  524,800
│    └─ReLU: 2-10                        [1, 512]                  --
│    └─BatchNorm1d: 2-11                 [1, 512]                  1,024
│    └─Dropout: 2-12                     [1, 512]                  --
├─Linear: 1-6                            [1, 300]                  153,900
==========================================================================================
Total params: 3,130,476
Trainable params: 3,130,476
Non-trainable params: 0
Total mult-adds (Units.GIGABYTES): 2.81
==========================================================================================
Input size (MB): 0.01
Forward/backward pass size (MB): 240.15
Params size (MB): 12.52
Estimated Total Size (MB): 252.69
…
