…
I0000 00:00:1750462535.731380 1343356 gpu_device.cc:2019] Created device /job:localhost/replica:0/task:0/device:GPU:1 with 46551 MB memory:  -> device: 1, name: NVIDIA RTX 6000 Ada Generation, pci bus id: 0000:61:00.0, compute capability: 8.9
Total parameters: 4,514,732
Trainable parameters: 4,514,732
Detailed summary with torchinfo:
==========================================================================================
Layer (type:depth-idx)                   Output Shape              Param #
==========================================================================================
PointNet2SurfaceRegressor                [1, 10, 10, 3]            --
├─Sequential: 1-1                        [1, 64, 1225]             --
│    └─Conv1d: 2-1                       [1, 64, 1225]             192
│    └─BatchNorm1d: 2-2                  [1, 64, 1225]             128
│    └─ReLU: 2-3                         [1, 64, 1225]             --
├─PointNetSetAbstractionKNN: 1-2         [1, 3, 612]               --
│    └─ModuleList: 2-4                   --                        --
│    │    └─Sequential: 3-1              [1, 64, 612, 32]          4,416
│    │    └─Sequential: 3-2              [1, 64, 612, 32]          4,224
│    │    └─Sequential: 3-3              [1, 128, 612, 32]         8,448
├─PointNetSetAbstractionKNN: 1-3         [1, 3, 612]               --
│    └─ModuleList: 2-5                   --                        --
│    │    └─Sequential: 3-4              [1, 128, 612, 64]         17,024
│    │    └─Sequential: 3-5              [1, 128, 612, 64]         16,640
│    │    └─Sequential: 3-6              [1, 256, 612, 64]         33,280
│    │    └─Sequential: 3-7              [1, 256, 612, 64]         66,048
├─PointNetSetAbstractionKNN: 1-4         [1, 3, 306]               --
│    └─ModuleList: 2-6                   --                        --
│    │    └─Sequential: 3-8              [1, 256, 306, 64]         66,816
│    │    └─Sequential: 3-9              [1, 256, 306, 64]         66,048
│    │    └─Sequential: 3-10             [1, 512, 306, 64]         132,096
│    │    └─Sequential: 3-11             [1, 512, 306, 64]         263,168
├─PointNetSetAbstractionKNN: 1-5         [1, 3, 76]                --
│    └─ModuleList: 2-7                   --                        --
│    │    └─Sequential: 3-12             [1, 512, 76, 64]          264,704
│    │    └─Sequential: 3-13             [1, 512, 76, 64]          263,168
│    │    └─Sequential: 3-14             [1, 1024, 76, 64]         526,336
│    │    └─Sequential: 3-15             [1, 1024, 76, 64]         1,050,624
├─Sequential: 1-6                        [1, 512]                  --
│    └─Linear: 2-8                       [1, 1024]                 1,049,600
│    └─ReLU: 2-9                         [1, 1024]                 --
│    └─BatchNorm1d: 2-10                 [1, 1024]                 2,048
│    └─Dropout: 2-11                     [1, 1024]                 --
│    └─Linear: 2-12                      [1, 512]                  524,800
│    └─ReLU: 2-13                        [1, 512]                  --
│    └─BatchNorm1d: 2-14                 [1, 512]                  1,024
│    └─Dropout: 2-15                     [1, 512]                  --
├─Linear: 1-7                            [1, 300]                  153,900
==========================================================================================
Total params: 4,514,732
Trainable params: 4,514,732
Non-trainable params: 0
Total mult-adds (Units.GIGABYTES): 25.97
==========================================================================================
Input size (MB): 0.01
Forward/backward pass size (MB): 1283.17
Params size (MB): 18.06
Estimated Total Size (MB): 1301.24
…
