…
I0000 00:00:1755713997.934202 2347448 gpu_device.cc:2019] Created device /job:localhost/replica:0/task:0/device:GPU:1 with 46550 MB memory:  -> device: 1, name: NVIDIA RTX 6000 Ada Generation, pci bus id: 0000:61:00.0, compute capability: 8.9
Total parameters: 5,165,996
Trainable parameters: 5,165,996
Detailed summary with torchinfo:
==========================================================================================
Layer (type:depth-idx)                   Output Shape              Param #
==========================================================================================
PointNet2SurfaceRegressor                [1, 10, 10, 3]            --
├─Sequential: 1-1                        [1, 64, 1225]             --
│    └─Conv1d: 2-1                       [1, 64, 1225]             192
│    └─BatchNorm1d: 2-2                  [1, 64, 1225]             128
│    └─ReLU: 2-3                         [1, 64, 1225]             --
├─PointNetSetAbstractionKNN: 1-2         [1, 3, 612]               --
│    └─ModuleList: 2-4                   --                        --
│    │    └─Sequential: 3-1              [1, 64, 612, 32]          4,416
│    │    └─Sequential: 3-2              [1, 64, 612, 32]          4,224
│    │    └─Sequential: 3-3              [1, 128, 612, 32]         8,448
├─PointNetSetAbstractionKNN: 1-3         [1, 3, 306]               --
│    └─ModuleList: 2-5                   --                        --
│    │    └─Sequential: 3-4              [1, 128, 306, 32]         17,024
│    │    └─Sequential: 3-5              [1, 128, 306, 32]         16,640
│    │    └─Sequential: 3-6              [1, 256, 306, 32]         33,280
├─PointNetSetAbstractionKNN: 1-4         [1, 3, 76]                --
│    └─ModuleList: 2-6                   --                        --
│    │    └─Sequential: 3-7              [1, 256, 76, 32]          66,816
│    │    └─Sequential: 3-8              [1, 256, 76, 32]          66,048
│    │    └─Sequential: 3-9              [1, 512, 76, 32]          132,096
├─PointNetSetAbstractionKNN: 1-5         [1, 3, 38]                --
│    └─ModuleList: 2-7                   --                        --
│    │    └─Sequential: 3-10             [1, 512, 38, 32]          264,704
│    │    └─Sequential: 3-11             [1, 512, 38, 32]          263,168
│    │    └─Sequential: 3-12             [1, 1024, 38, 32]         526,336
├─PointNetFeaturePropagation: 1-6        [1, 512, 76]              --
│    └─ModuleList: 2-10                  --                        (recursive)
│    │    └─Conv1d: 3-13                 [1, 512, 76]              786,944
│    └─ModuleList: 2-11                  --                        (recursive)
│    │    └─BatchNorm1d: 3-14            [1, 512, 76]              1,024
│    └─ModuleList: 2-10                  --                        (recursive)
│    │    └─Conv1d: 3-15                 [1, 512, 76]              262,656
│    └─ModuleList: 2-11                  --                        (recursive)
│    │    └─BatchNorm1d: 3-16            [1, 512, 76]              1,024
├─PointNetFeaturePropagation: 1-7        [1, 256, 306]             --
│    └─ModuleList: 2-14                  --                        (recursive)
│    │    └─Conv1d: 3-17                 [1, 512, 306]             393,728
│    └─ModuleList: 2-15                  --                        (recursive)
│    │    └─BatchNorm1d: 3-18            [1, 512, 306]             1,024
│    └─ModuleList: 2-14                  --                        (recursive)
│    │    └─Conv1d: 3-19                 [1, 256, 306]             131,328
│    └─ModuleList: 2-15                  --                        (recursive)
│    │    └─BatchNorm1d: 3-20            [1, 256, 306]             512
├─PointNetFeaturePropagation: 1-8        [1, 128, 612]             --
│    └─ModuleList: 2-18                  --                        (recursive)
│    │    └─Conv1d: 3-21                 [1, 256, 612]             98,560
│    └─ModuleList: 2-19                  --                        (recursive)
│    │    └─BatchNorm1d: 3-22            [1, 256, 612]             512
│    └─ModuleList: 2-18                  --                        (recursive)
│    │    └─Conv1d: 3-23                 [1, 128, 612]             32,896
│    └─ModuleList: 2-19                  --                        (recursive)
│    │    └─BatchNorm1d: 3-24            [1, 128, 612]             256
├─PointNetFeaturePropagation: 1-9        [1, 128, 1225]            --
│    └─ModuleList: 2-24                  --                        (recursive)
│    │    └─Conv1d: 3-25                 [1, 128, 1225]            24,704
│    └─ModuleList: 2-25                  --                        (recursive)
│    │    └─BatchNorm1d: 3-26            [1, 128, 1225]            256
│    └─ModuleList: 2-24                  --                        (recursive)
│    │    └─Conv1d: 3-27                 [1, 128, 1225]            16,512
│    └─ModuleList: 2-25                  --                        (recursive)
│    │    └─BatchNorm1d: 3-28            [1, 128, 1225]            256
│    └─ModuleList: 2-24                  --                        (recursive)
│    │    └─Conv1d: 3-29                 [1, 128, 1225]            16,512
│    └─ModuleList: 2-25                  --                        (recursive)
│    │    └─BatchNorm1d: 3-30            [1, 128, 1225]            256
├─Sequential: 1-10                       [1, 512]                  --
│    └─Linear: 2-26                      [1, 1024]                 1,311,744
│    └─ReLU: 2-27                        [1, 1024]                 --
│    └─BatchNorm1d: 2-28                 [1, 1024]                 2,048
│    └─Dropout: 2-29                     [1, 1024]                 --
│    └─Linear: 2-30                      [1, 512]                  524,800
│    └─ReLU: 2-31                        [1, 512]                  --
│    └─BatchNorm1d: 2-32                 [1, 512]                  1,024
│    └─Dropout: 2-33                     [1, 512]                  --
├─Linear: 1-11                           [1, 300]                  153,900
==========================================================================================
Total params: 5,165,996
Trainable params: 5,165,996
Non-trainable params: 0
Total mult-adds (Units.GIGABYTES): 3.28
==========================================================================================
Input size (MB): 0.01
Forward/backward pass size (MB): 257.70
Params size (MB): 20.66
Estimated Total Size (MB): 278.38
…
