…
        (2): Linear(in_features=1024, out_features=256, bias=True)
      )
    )
  )
  (head): Sequential(
    (0): LayerNorm((256,), eps=1e-05, elementwise_affine=True)
    (1): Linear(in_features=256, out_features=512, bias=True)
    (2): GELU(approximate='none')
    (3): Linear(in_features=512, out_features=300, bias=True)
  )
)
Total parameters: 3,243,820
==========================================================================================
Layer (type:depth-idx)                   Output Shape              Param #
==========================================================================================
SurfaceTransformer                       [1, 10, 10, 3]            --
├─Sequential: 1-1                        [1, 1225, 256]            --
│    └─Linear: 2-1                       [1, 1225, 256]            1,024
│    └─GELU: 2-2                         [1, 1225, 256]            --
│    └─LayerNorm: 2-3                    [1, 1225, 256]            512
├─ModuleList: 1-2                        --                        --
│    └─PointTransformerLayer: 2-4        [1, 1225, 256]            --
│    │    └─Linear: 3-1                  [1, 1225, 768]            196,608
│    │    └─Sequential: 3-2              [1, 1225, 1225, 256]      16,896
│    │    └─Sequential: 3-3              [1, 1225, 32, 256]        525,568
│    └─PointTransformerLayer: 2-5        [1, 1225, 256]            --
│    │    └─Linear: 3-4                  [1, 1225, 768]            196,608
│    │    └─Sequential: 3-5              [1, 1225, 1225, 256]      16,896
│    │    └─Sequential: 3-6              [1, 1225, 32, 256]        525,568
│    └─PointTransformerLayer: 2-6        [1, 1225, 256]            --
│    │    └─Linear: 3-7                  [1, 1225, 768]            196,608
│    │    └─Sequential: 3-8              [1, 1225, 1225, 256]      16,896
│    │    └─Sequential: 3-9              [1, 1225, 32, 256]        525,568
│    └─PointTransformerLayer: 2-7        [1, 1225, 256]            --
│    │    └─Linear: 3-10                 [1, 1225, 768]            196,608
│    │    └─Sequential: 3-11             [1, 1225, 1225, 256]      16,896
│    │    └─Sequential: 3-12             [1, 1225, 32, 256]        525,568
├─Sequential: 1-3                        [1, 300]                  --
│    └─LayerNorm: 2-8                    [1, 256]                  512
│    └─Linear: 2-9                       [1, 512]                  131,584
│    └─GELU: 2-10                        [1, 512]                  --
│    └─Linear: 2-11                      [1, 300]                  153,900
==========================================================================================
Total params: 3,243,820
Trainable params: 3,243,820
Non-trainable params: 0
Total mult-adds (Units.MEGABYTES): 3.24
==========================================================================================
Input size (MB): 0.01
Forward/backward pass size (MB): 17007.16
Params size (MB): 12.98
Estimated Total Size (MB): 17020.15
…
