…
│                     │ 512)              │            │                   │
├─────────────────────┼───────────────────┼────────────┼───────────────────┤
│ batch_normalizatio… │ (None, 17, 17,    │      2,048 │ conv2d_14[0][0]   │
│ (BatchNormalizatio… │ 512)              │            │                   │
├─────────────────────┼───────────────────┼────────────┼───────────────────┤
│ p_re_lu_14 (PReLU)  │ (None, 17, 17,    │    147,968 │ batch_normalizat… │
│                     │ 512)              │            │                   │
├─────────────────────┼───────────────────┼────────────┼───────────────────┤
│ max_pooling2d_3     │ (None, 6, 6, 512) │          0 │ p_re_lu_14[0][0]  │
│ (MaxPooling2D)      │                   │            │                   │
├─────────────────────┼───────────────────┼────────────┼───────────────────┤
│ conv2d_16 (Conv2D)  │ (None, 6, 6, 256) │    131,072 │ max_pooling2d_3[… │
├─────────────────────┼───────────────────┼────────────┼───────────────────┤
│ conv2d_18 (Conv2D)  │ (None, 6, 6, 256) │    131,072 │ max_pooling2d_3[… │
├─────────────────────┼───────────────────┼────────────┼───────────────────┤
│ batch_normalizatio… │ (None, 6, 6, 256) │      1,024 │ conv2d_16[0][0]   │
│ (BatchNormalizatio… │                   │            │                   │
├─────────────────────┼───────────────────┼────────────┼───────────────────┤
│ batch_normalizatio… │ (None, 6, 6, 256) │      1,024 │ conv2d_18[0][0]   │
│ (BatchNormalizatio… │                   │            │                   │
├─────────────────────┼───────────────────┼────────────┼───────────────────┤
│ p_re_lu_16 (PReLU)  │ (None, 6, 6, 256) │      9,216 │ batch_normalizat… │
├─────────────────────┼───────────────────┼────────────┼───────────────────┤
│ p_re_lu_18 (PReLU)  │ (None, 6, 6, 256) │      9,216 │ batch_normalizat… │
├─────────────────────┼───────────────────┼────────────┼───────────────────┤
│ max_pooling2d_4     │ (None, 6, 6, 512) │          0 │ max_pooling2d_3[… │
│ (MaxPooling2D)      │                   │            │                   │
├─────────────────────┼───────────────────┼────────────┼───────────────────┤
│ conv2d_15 (Conv2D)  │ (None, 6, 6, 256) │    131,072 │ max_pooling2d_3[… │
├─────────────────────┼───────────────────┼────────────┼───────────────────┤
│ conv2d_17 (Conv2D)  │ (None, 6, 6, 256) │    589,824 │ p_re_lu_16[0][0]  │
├─────────────────────┼───────────────────┼────────────┼───────────────────┤
│ conv2d_19 (Conv2D)  │ (None, 6, 6, 256) │  1,638,400 │ p_re_lu_18[0][0]  │
├─────────────────────┼───────────────────┼────────────┼───────────────────┤
│ conv2d_20 (Conv2D)  │ (None, 6, 6, 256) │    131,072 │ max_pooling2d_4[… │
├─────────────────────┼───────────────────┼────────────┼───────────────────┤
│ batch_normalizatio… │ (None, 6, 6, 256) │      1,024 │ conv2d_15[0][0]   │
│ (BatchNormalizatio… │                   │            │                   │
├─────────────────────┼───────────────────┼────────────┼───────────────────┤
│ batch_normalizatio… │ (None, 6, 6, 256) │      1,024 │ conv2d_17[0][0]   │
│ (BatchNormalizatio… │                   │            │                   │
├─────────────────────┼───────────────────┼────────────┼───────────────────┤
│ batch_normalizatio… │ (None, 6, 6, 256) │      1,024 │ conv2d_19[0][0]   │
│ (BatchNormalizatio… │                   │            │                   │
├─────────────────────┼───────────────────┼────────────┼───────────────────┤
│ batch_normalizatio… │ (None, 6, 6, 256) │      1,024 │ conv2d_20[0][0]   │
│ (BatchNormalizatio… │                   │            │                   │
├─────────────────────┼───────────────────┼────────────┼───────────────────┤
│ p_re_lu_15 (PReLU)  │ (None, 6, 6, 256) │      9,216 │ batch_normalizat… │
├─────────────────────┼───────────────────┼────────────┼───────────────────┤
│ p_re_lu_17 (PReLU)  │ (None, 6, 6, 256) │      9,216 │ batch_normalizat… │
├─────────────────────┼───────────────────┼────────────┼───────────────────┤
│ p_re_lu_19 (PReLU)  │ (None, 6, 6, 256) │      9,216 │ batch_normalizat… │
├─────────────────────┼───────────────────┼────────────┼───────────────────┤
│ p_re_lu_20 (PReLU)  │ (None, 6, 6, 256) │      9,216 │ batch_normalizat… │
├─────────────────────┼───────────────────┼────────────┼───────────────────┤
│ concatenate_2       │ (None, 6, 6,      │          0 │ p_re_lu_15[0][0], │
│ (Concatenate)       │ 1024)             │            │ p_re_lu_17[0][0], │
│                     │                   │            │ p_re_lu_19[0][0], │
│                     │                   │            │ p_re_lu_20[0][0]  │
├─────────────────────┼───────────────────┼────────────┼───────────────────┤
│ conv2d_21 (Conv2D)  │ (None, 6, 6, 256) │  2,359,296 │ concatenate_2[0]… │
├─────────────────────┼───────────────────┼────────────┼───────────────────┤
│ batch_normalizatio… │ (None, 6, 6, 256) │      1,024 │ conv2d_21[0][0]   │
│ (BatchNormalizatio… │                   │            │                   │
├─────────────────────┼───────────────────┼────────────┼───────────────────┤
│ p_re_lu_21 (PReLU)  │ (None, 6, 6, 256) │      9,216 │ batch_normalizat… │
├─────────────────────┼───────────────────┼────────────┼───────────────────┤
│ max_pooling2d_5     │ (None, 2, 2, 256) │          0 │ p_re_lu_21[0][0]  │
│ (MaxPooling2D)      │                   │            │                   │
├─────────────────────┼───────────────────┼────────────┼───────────────────┤
│ conv2d_23 (Conv2D)  │ (None, 2, 2, 256) │     65,536 │ max_pooling2d_5[… │
├─────────────────────┼───────────────────┼────────────┼───────────────────┤
│ conv2d_25 (Conv2D)  │ (None, 2, 2, 256) │     65,536 │ max_pooling2d_5[… │
├─────────────────────┼───────────────────┼────────────┼───────────────────┤
│ batch_normalizatio… │ (None, 2, 2, 256) │      1,024 │ conv2d_23[0][0]   │
│ (BatchNormalizatio… │                   │            │                   │
├─────────────────────┼───────────────────┼────────────┼───────────────────┤
│ batch_normalizatio… │ (None, 2, 2, 256) │      1,024 │ conv2d_25[0][0]   │
│ (BatchNormalizatio… │                   │            │                   │
├─────────────────────┼───────────────────┼────────────┼───────────────────┤
│ p_re_lu_23 (PReLU)  │ (None, 2, 2, 256) │      1,024 │ batch_normalizat… │
├─────────────────────┼───────────────────┼────────────┼───────────────────┤
│ p_re_lu_25 (PReLU)  │ (None, 2, 2, 256) │      1,024 │ batch_normalizat… │
├─────────────────────┼───────────────────┼────────────┼───────────────────┤
│ max_pooling2d_6     │ (None, 2, 2, 256) │          0 │ max_pooling2d_5[… │
│ (MaxPooling2D)      │                   │            │                   │
├─────────────────────┼───────────────────┼────────────┼───────────────────┤
│ conv2d_22 (Conv2D)  │ (None, 2, 2, 256) │     65,536 │ max_pooling2d_5[… │
├─────────────────────┼───────────────────┼────────────┼───────────────────┤
│ conv2d_24 (Conv2D)  │ (None, 2, 2, 256) │    589,824 │ p_re_lu_23[0][0]  │
├─────────────────────┼───────────────────┼────────────┼───────────────────┤
│ conv2d_26 (Conv2D)  │ (None, 2, 2, 256) │  1,638,400 │ p_re_lu_25[0][0]  │
├─────────────────────┼───────────────────┼────────────┼───────────────────┤
│ conv2d_27 (Conv2D)  │ (None, 2, 2, 256) │     65,536 │ max_pooling2d_6[… │
├─────────────────────┼───────────────────┼────────────┼───────────────────┤
│ batch_normalizatio… │ (None, 2, 2, 256) │      1,024 │ conv2d_22[0][0]   │
│ (BatchNormalizatio… │                   │            │                   │
├─────────────────────┼───────────────────┼────────────┼───────────────────┤
│ batch_normalizatio… │ (None, 2, 2, 256) │      1,024 │ conv2d_24[0][0]   │
│ (BatchNormalizatio… │                   │            │                   │
├─────────────────────┼───────────────────┼────────────┼───────────────────┤
│ batch_normalizatio… │ (None, 2, 2, 256) │      1,024 │ conv2d_26[0][0]   │
│ (BatchNormalizatio… │                   │            │                   │
├─────────────────────┼───────────────────┼────────────┼───────────────────┤
│ batch_normalizatio… │ (None, 2, 2, 256) │      1,024 │ conv2d_27[0][0]   │
│ (BatchNormalizatio… │                   │            │                   │
├─────────────────────┼───────────────────┼────────────┼───────────────────┤
│ p_re_lu_22 (PReLU)  │ (None, 2, 2, 256) │      1,024 │ batch_normalizat… │
├─────────────────────┼───────────────────┼────────────┼───────────────────┤
│ p_re_lu_24 (PReLU)  │ (None, 2, 2, 256) │      1,024 │ batch_normalizat… │
├─────────────────────┼───────────────────┼────────────┼───────────────────┤
│ p_re_lu_26 (PReLU)  │ (None, 2, 2, 256) │      1,024 │ batch_normalizat… │
├─────────────────────┼───────────────────┼────────────┼───────────────────┤
│ p_re_lu_27 (PReLU)  │ (None, 2, 2, 256) │      1,024 │ batch_normalizat… │
├─────────────────────┼───────────────────┼────────────┼───────────────────┤
│ concatenate_3       │ (None, 2, 2,      │          0 │ p_re_lu_22[0][0], │
│ (Concatenate)       │ 1024)             │            │ p_re_lu_24[0][0], │
│                     │                   │            │ p_re_lu_26[0][0], │
│                     │                   │            │ p_re_lu_27[0][0]  │
├─────────────────────┼───────────────────┼────────────┼───────────────────┤
│ conv2d_28 (Conv2D)  │ (None, 2, 2, 512) │  4,718,592 │ concatenate_3[0]… │
├─────────────────────┼───────────────────┼────────────┼───────────────────┤
│ batch_normalizatio… │ (None, 2, 2, 512) │      2,048 │ conv2d_28[0][0]   │
│ (BatchNormalizatio… │                   │            │                   │
├─────────────────────┼───────────────────┼────────────┼───────────────────┤
│ p_re_lu_28 (PReLU)  │ (None, 2, 2, 512) │      2,048 │ batch_normalizat… │
├─────────────────────┼───────────────────┼────────────┼───────────────────┤
│ max_pooling2d_7     │ (None, 1, 1, 512) │          0 │ p_re_lu_28[0][0]  │
│ (MaxPooling2D)      │                   │            │                   │
├─────────────────────┼───────────────────┼────────────┼───────────────────┤
│ flatten (Flatten)   │ (None, 512)       │          0 │ max_pooling2d_7[… │
├─────────────────────┼───────────────────┼────────────┼───────────────────┤
│ ctrl (Dense)        │ (None, 432)       │    221,616 │ flatten[0][0]     │
├─────────────────────┼───────────────────┼────────────┼───────────────────┤
│ ctrl_net (Reshape)  │ (None, 12, 12, 3) │          0 │ ctrl[0][0]        │
└─────────────────────┴───────────────────┴────────────┴───────────────────┘
 Total params: 22,206,064 (84.71 MB)
 Trainable params: 22,193,136 (84.66 MB)
 Non-trainable params: 12,928 (50.50 KB)
2025-09-17 20:58:42.343624: I tensorflow/core/kernels/data/tf_record_dataset_op.cc:381] TFRecordDataset `buffer_size` is unspecified, default to 262144
Epoch 1/150
I0000 00:00:1758135558.335708 3939000 cuda_dnn.cc:529] Loaded cuDNN version 90501
…
