…
data_0045-of-0100.tfrecord']
Train shards: 80 Val shards: 20
Model: "model"
__________________________________________________________________________________________________
 Layer (type)                Output Shape                 Param #   Connected to                  
==================================================================================================
 input_1 (InputLayer)        [(None, 35, 35, 3)]          0         []                            
                                                                                                  
 conv2d (Conv2D)             (None, 35, 35, 64)           4864      ['input_1[0][0]']             
                                                                                                  
 conv2d_2 (Conv2D)           (None, 35, 35, 64)           4160      ['conv2d[0][0]']              
                                                                                                  
 conv2d_4 (Conv2D)           (None, 35, 35, 64)           4160      ['conv2d[0][0]']              
                                                                                                  
 max_pooling2d (MaxPooling2  (None, 35, 35, 64)           0         ['conv2d[0][0]']              
 D)                                                                                               
                                                                                                  
 conv2d_1 (Conv2D)           (None, 35, 35, 64)           4160      ['conv2d[0][0]']              
                                                                                                  
 conv2d_3 (Conv2D)           (None, 35, 35, 64)           36928     ['conv2d_2[0][0]']            
                                                                                                  
 conv2d_5 (Conv2D)           (None, 35, 35, 64)           102464    ['conv2d_4[0][0]']            
                                                                                                  
 conv2d_6 (Conv2D)           (None, 35, 35, 64)           4160      ['max_pooling2d[0][0]']       
                                                                                                  
 concatenate (Concatenate)   (None, 35, 35, 256)          0         ['conv2d_1[0][0]',            
                                                                     'conv2d_3[0][0]',            
                                                                     'conv2d_5[0][0]',            
                                                                     'conv2d_6[0][0]']            
                                                                                                  
 conv2d_7 (Conv2D)           (None, 35, 35, 128)          295040    ['concatenate[0][0]']         
                                                                                                  
 batch_normalization (Batch  (None, 35, 35, 128)          512       ['conv2d_7[0][0]']            
 Normalization)                                                                                   
                                                                                                  
 max_pooling2d_1 (MaxPoolin  (None, 12, 12, 128)          0         ['batch_normalization[0][0]'] 
 g2D)                                                                                             
                                                                                                  
 conv2d_9 (Conv2D)           (None, 12, 12, 256)          33024     ['max_pooling2d_1[0][0]']     
                                                                                                  
 conv2d_11 (Conv2D)          (None, 12, 12, 256)          33024     ['max_pooling2d_1[0][0]']     
                                                                                                  
 max_pooling2d_2 (MaxPoolin  (None, 12, 12, 128)          0         ['max_pooling2d_1[0][0]']     
 g2D)                                                                                             
                                                                                                  
 conv2d_8 (Conv2D)           (None, 12, 12, 256)          33024     ['max_pooling2d_1[0][0]']     
                                                                                                  
 conv2d_10 (Conv2D)          (None, 12, 12, 256)          590080    ['conv2d_9[0][0]']            
                                                                                                  
 conv2d_12 (Conv2D)          (None, 12, 12, 256)          1638656   ['conv2d_11[0][0]']           
                                                                                                  
 conv2d_13 (Conv2D)          (None, 12, 12, 256)          33024     ['max_pooling2d_2[0][0]']     
                                                                                                  
 concatenate_1 (Concatenate  (None, 12, 12, 1024)         0         ['conv2d_8[0][0]',            
 )                                                                   'conv2d_10[0][0]',           
                                                                     'conv2d_12[0][0]',           
                                                                     'conv2d_13[0][0]']           
                                                                                                  
 conv2d_14 (Conv2D)          (None, 12, 12, 512)          4719104   ['concatenate_1[0][0]']       
                                                                                                  
 batch_normalization_1 (Bat  (None, 12, 12, 512)          2048      ['conv2d_14[0][0]']           
 chNormalization)                                                                                 
                                                                                                  
 max_pooling2d_3 (MaxPoolin  (None, 4, 4, 512)            0         ['batch_normalization_1[0][0]'
 g2D)                                                               ]                             
                                                                                                  
 conv2d_16 (Conv2D)          (None, 4, 4, 256)            131328    ['max_pooling2d_3[0][0]']     
                                                                                                  
 conv2d_18 (Conv2D)          (None, 4, 4, 256)            131328    ['max_pooling2d_3[0][0]']     
                                                                                                  
 max_pooling2d_4 (MaxPoolin  (None, 4, 4, 512)            0         ['max_pooling2d_3[0][0]']     
 g2D)                                                                                             
                                                                                                  
 conv2d_15 (Conv2D)          (None, 4, 4, 256)            131328    ['max_pooling2d_3[0][0]']     
                                                                                                  
 conv2d_17 (Conv2D)          (None, 4, 4, 256)            590080    ['conv2d_16[0][0]']           
                                                                                                  
 conv2d_19 (Conv2D)          (None, 4, 4, 256)            1638656   ['conv2d_18[0][0]']           
                                                                                                  
 conv2d_20 (Conv2D)          (None, 4, 4, 256)            131328    ['max_pooling2d_4[0][0]']     
                                                                                                  
 concatenate_2 (Concatenate  (None, 4, 4, 1024)           0         ['conv2d_15[0][0]',           
 )                                                                   'conv2d_17[0][0]',           
                                                                     'conv2d_19[0][0]',           
                                                                     'conv2d_20[0][0]']           
                                                                                                  
 conv2d_21 (Conv2D)          (None, 4, 4, 256)            2359552   ['concatenate_2[0][0]']       
                                                                                                  
 batch_normalization_2 (Bat  (None, 4, 4, 256)            1024      ['conv2d_21[0][0]']           
 chNormalization)                                                                                 
                                                                                                  
 max_pooling2d_5 (MaxPoolin  (None, 2, 2, 256)            0         ['batch_normalization_2[0][0]'
 g2D)                                                               ]                             
                                                                                                  
 conv2d_23 (Conv2D)          (None, 2, 2, 256)            65792     ['max_pooling2d_5[0][0]']     
                                                                                                  
 conv2d_25 (Conv2D)          (None, 2, 2, 256)            65792     ['max_pooling2d_5[0][0]']     
                                                                                                  
 max_pooling2d_6 (MaxPoolin  (None, 2, 2, 256)            0         ['max_pooling2d_5[0][0]']     
 g2D)                                                                                             
                                                                                                  
 conv2d_22 (Conv2D)          (None, 2, 2, 256)            65792     ['max_pooling2d_5[0][0]']     
                                                                                                  
 conv2d_24 (Conv2D)          (None, 2, 2, 256)            590080    ['conv2d_23[0][0]']           
                                                                                                  
 conv2d_26 (Conv2D)          (None, 2, 2, 256)            1638656   ['conv2d_25[0][0]']           
                                                                                                  
 conv2d_27 (Conv2D)          (None, 2, 2, 256)            65792     ['max_pooling2d_6[0][0]']     
                                                                                                  
 concatenate_3 (Concatenate  (None, 2, 2, 1024)           0         ['conv2d_22[0][0]',           
 )                                                                   'conv2d_24[0][0]',           
                                                                     'conv2d_26[0][0]',           
                                                                     'conv2d_27[0][0]']           
                                                                                                  
 conv2d_28 (Conv2D)          (None, 2, 2, 512)            4719104   ['concatenate_3[0][0]']       
                                                                                                  
 batch_normalization_3 (Bat  (None, 2, 2, 512)            2048      ['conv2d_28[0][0]']           
 chNormalization)                                                                                 
                                                                                                  
 max_pooling2d_7 (MaxPoolin  (None, 1, 1, 512)            0         ['batch_normalization_3[0][0]'
 g2D)                                                               ]                             
                                                                                                  
 flatten (Flatten)           (None, 512)                  0         ['max_pooling2d_7[0][0]']     
                                                                                                  
 dense (Dense)               (None, 300)                  153900    ['flatten[0][0]']             
                                                                                                  
 reshape (Reshape)           (None, 10, 10, 3)            0         ['dense[0][0]']               
                                                                                                  
==================================================================================================
Total params: 20020012 (76.37 MB)
Trainable params: 20017196 (76.36 MB)
Non-trainable params: 2816 (11.00 KB)
__________________________________________________________________________________________________
…
