…
To enable the following instructions: AVX2 AVX512F AVX512_VNNI FMA, in other operations, rebuild TensorFlow with the appropriate compiler flags.
I0000 00:00:1750175748.183898 1161826 gpu_device.cc:2019] Created device /job:localhost/replica:0/task:0/device:GPU:0 with 46551 MB memory:  -> device: 0, name: NVIDIA RTX 6000 Ada Generation, pci bus id: 0000:61:00.0, compute capability: 8.9
Model: "pointnet2_surface_ctrl"
┏━━━━━━━━━━━━━━━━━━━━━┳━━━━━━━━━━━━━━━━━━━┳━━━━━━━━━━━━┳━━━━━━━━━━━━━━━━━━━┓
┃ Layer (type)        ┃ Output Shape      ┃    Param # ┃ Connected to      ┃
┡━━━━━━━━━━━━━━━━━━━━━╇━━━━━━━━━━━━━━━━━━━╇━━━━━━━━━━━━╇━━━━━━━━━━━━━━━━━━━┩
│ input_layer         │ (None, 1225, 3)   │          0 │ -                 │
│ (InputLayer)        │                   │            │                   │
├─────────────────────┼───────────────────┼────────────┼───────────────────┤
│ conv1d (Conv1D)     │ (None, 1225, 64)  │      1,024 │ input_layer[0][0] │
├─────────────────────┼───────────────────┼────────────┼───────────────────┤
│ conv1d_2 (Conv1D)   │ (None, 1225, 64)  │      4,160 │ conv1d[0][0]      │
├─────────────────────┼───────────────────┼────────────┼───────────────────┤
│ conv1d_4 (Conv1D)   │ (None, 1225, 64)  │      4,160 │ conv1d[0][0]      │
├─────────────────────┼───────────────────┼────────────┼───────────────────┤
│ max_pooling1d       │ (None, 1225, 64)  │          0 │ conv1d[0][0]      │
│ (MaxPooling1D)      │                   │            │                   │
├─────────────────────┼───────────────────┼────────────┼───────────────────┤
│ conv1d_1 (Conv1D)   │ (None, 1225, 64)  │      4,160 │ conv1d[0][0]      │
├─────────────────────┼───────────────────┼────────────┼───────────────────┤
│ conv1d_3 (Conv1D)   │ (None, 1225, 64)  │     12,352 │ conv1d_2[0][0]    │
├─────────────────────┼───────────────────┼────────────┼───────────────────┤
│ conv1d_5 (Conv1D)   │ (None, 1225, 64)  │     20,544 │ conv1d_4[0][0]    │
├─────────────────────┼───────────────────┼────────────┼───────────────────┤
│ conv1d_6 (Conv1D)   │ (None, 1225, 64)  │      4,160 │ max_pooling1d[0]… │
├─────────────────────┼───────────────────┼────────────┼───────────────────┤
│ concatenate         │ (None, 1225, 256) │          0 │ conv1d_1[0][0],   │
│ (Concatenate)       │                   │            │ conv1d_3[0][0],   │
│                     │                   │            │ conv1d_5[0][0],   │
│                     │                   │            │ conv1d_6[0][0]    │
├─────────────────────┼───────────────────┼────────────┼───────────────────┤
│ conv1d_7 (Conv1D)   │ (None, 1225, 128) │     98,432 │ concatenate[0][0] │
├─────────────────────┼───────────────────┼────────────┼───────────────────┤
│ batch_normalization │ (None, 1225, 128) │        512 │ conv1d_7[0][0]    │
│ (BatchNormalizatio… │                   │            │                   │
├─────────────────────┼───────────────────┼────────────┼───────────────────┤
│ max_pooling1d_1     │ (None, 409, 128)  │          0 │ batch_normalizat… │
│ (MaxPooling1D)      │                   │            │                   │
├─────────────────────┼───────────────────┼────────────┼───────────────────┤
│ conv1d_9 (Conv1D)   │ (None, 409, 256)  │     33,024 │ max_pooling1d_1[… │
├─────────────────────┼───────────────────┼────────────┼───────────────────┤
│ conv1d_11 (Conv1D)  │ (None, 409, 256)  │     33,024 │ max_pooling1d_1[… │
├─────────────────────┼───────────────────┼────────────┼───────────────────┤
│ max_pooling1d_2     │ (None, 409, 128)  │          0 │ max_pooling1d_1[… │
│ (MaxPooling1D)      │                   │            │                   │
├─────────────────────┼───────────────────┼────────────┼───────────────────┤
│ conv1d_8 (Conv1D)   │ (None, 409, 256)  │     33,024 │ max_pooling1d_1[… │
├─────────────────────┼───────────────────┼────────────┼───────────────────┤
│ conv1d_10 (Conv1D)  │ (None, 409, 256)  │    196,864 │ conv1d_9[0][0]    │
├─────────────────────┼───────────────────┼────────────┼───────────────────┤
│ conv1d_12 (Conv1D)  │ (None, 409, 256)  │    327,936 │ conv1d_11[0][0]   │
├─────────────────────┼───────────────────┼────────────┼───────────────────┤
│ conv1d_13 (Conv1D)  │ (None, 409, 256)  │     33,024 │ max_pooling1d_2[… │
├─────────────────────┼───────────────────┼────────────┼───────────────────┤
│ concatenate_1       │ (None, 409, 1024) │          0 │ conv1d_8[0][0],   │
│ (Concatenate)       │                   │            │ conv1d_10[0][0],  │
│                     │                   │            │ conv1d_12[0][0],  │
│                     │                   │            │ conv1d_13[0][0]   │
├─────────────────────┼───────────────────┼────────────┼───────────────────┤
│ conv1d_14 (Conv1D)  │ (None, 409, 512)  │  1,573,376 │ concatenate_1[0]… │
├─────────────────────┼───────────────────┼────────────┼───────────────────┤
│ batch_normalizatio… │ (None, 409, 512)  │      2,048 │ conv1d_14[0][0]   │
│ (BatchNormalizatio… │                   │            │                   │
├─────────────────────┼───────────────────┼────────────┼───────────────────┤
│ max_pooling1d_3     │ (None, 137, 512)  │          0 │ batch_normalizat… │
│ (MaxPooling1D)      │                   │            │                   │
├─────────────────────┼───────────────────┼────────────┼───────────────────┤
│ conv1d_16 (Conv1D)  │ (None, 137, 256)  │    131,328 │ max_pooling1d_3[… │
├─────────────────────┼───────────────────┼────────────┼───────────────────┤
│ conv1d_18 (Conv1D)  │ (None, 137, 256)  │    131,328 │ max_pooling1d_3[… │
├─────────────────────┼───────────────────┼────────────┼───────────────────┤
│ max_pooling1d_4     │ (None, 137, 512)  │          0 │ max_pooling1d_3[… │
│ (MaxPooling1D)      │                   │            │                   │
├─────────────────────┼───────────────────┼────────────┼───────────────────┤
│ conv1d_15 (Conv1D)  │ (None, 137, 256)  │    131,328 │ max_pooling1d_3[… │
├─────────────────────┼───────────────────┼────────────┼───────────────────┤
│ conv1d_17 (Conv1D)  │ (None, 137, 256)  │    196,864 │ conv1d_16[0][0]   │
├─────────────────────┼───────────────────┼────────────┼───────────────────┤
│ conv1d_19 (Conv1D)  │ (None, 137, 256)  │    327,936 │ conv1d_18[0][0]   │
├─────────────────────┼───────────────────┼────────────┼───────────────────┤
│ conv1d_20 (Conv1D)  │ (None, 137, 256)  │    131,328 │ max_pooling1d_4[… │
├─────────────────────┼───────────────────┼────────────┼───────────────────┤
│ concatenate_2       │ (None, 137, 1024) │          0 │ conv1d_15[0][0],  │
│ (Concatenate)       │                   │            │ conv1d_17[0][0],  │
│                     │                   │            │ conv1d_19[0][0],  │
│                     │                   │            │ conv1d_20[0][0]   │
├─────────────────────┼───────────────────┼────────────┼───────────────────┤
│ conv1d_21 (Conv1D)  │ (None, 137, 256)  │    786,688 │ concatenate_2[0]… │
├─────────────────────┼───────────────────┼────────────┼───────────────────┤
│ batch_normalizatio… │ (None, 137, 256)  │      1,024 │ conv1d_21[0][0]   │
│ (BatchNormalizatio… │                   │            │                   │
├─────────────────────┼───────────────────┼────────────┼───────────────────┤
│ max_pooling1d_5     │ (None, 46, 256)   │          0 │ batch_normalizat… │
│ (MaxPooling1D)      │                   │            │                   │
├─────────────────────┼───────────────────┼────────────┼───────────────────┤
│ conv1d_23 (Conv1D)  │ (None, 46, 256)   │     65,792 │ max_pooling1d_5[… │
├─────────────────────┼───────────────────┼────────────┼───────────────────┤
│ conv1d_25 (Conv1D)  │ (None, 46, 256)   │     65,792 │ max_pooling1d_5[… │
├─────────────────────┼───────────────────┼────────────┼───────────────────┤
│ max_pooling1d_6     │ (None, 46, 256)   │          0 │ max_pooling1d_5[… │
│ (MaxPooling1D)      │                   │            │                   │
├─────────────────────┼───────────────────┼────────────┼───────────────────┤
│ conv1d_22 (Conv1D)  │ (None, 46, 256)   │     65,792 │ max_pooling1d_5[… │
├─────────────────────┼───────────────────┼────────────┼───────────────────┤
│ conv1d_24 (Conv1D)  │ (None, 46, 256)   │    196,864 │ conv1d_23[0][0]   │
├─────────────────────┼───────────────────┼────────────┼───────────────────┤
│ conv1d_26 (Conv1D)  │ (None, 46, 256)   │    327,936 │ conv1d_25[0][0]   │
├─────────────────────┼───────────────────┼────────────┼───────────────────┤
│ conv1d_27 (Conv1D)  │ (None, 46, 256)   │     65,792 │ max_pooling1d_6[… │
├─────────────────────┼───────────────────┼────────────┼───────────────────┤
│ concatenate_3       │ (None, 46, 1024)  │          0 │ conv1d_22[0][0],  │
│ (Concatenate)       │                   │            │ conv1d_24[0][0],  │
│                     │                   │            │ conv1d_26[0][0],  │
│                     │                   │            │ conv1d_27[0][0]   │
├─────────────────────┼───────────────────┼────────────┼───────────────────┤
│ conv1d_28 (Conv1D)  │ (None, 46, 512)   │  1,573,376 │ concatenate_3[0]… │
├─────────────────────┼───────────────────┼────────────┼───────────────────┤
│ batch_normalizatio… │ (None, 46, 512)   │      2,048 │ conv1d_28[0][0]   │
│ (BatchNormalizatio… │                   │            │                   │
├─────────────────────┼───────────────────┼────────────┼───────────────────┤
│ max_pooling1d_7     │ (None, 16, 512)   │          0 │ batch_normalizat… │
│ (MaxPooling1D)      │                   │            │                   │
├─────────────────────┼───────────────────┼────────────┼───────────────────┤
│ flatten (Flatten)   │ (None, 8192)      │          0 │ max_pooling1d_7[… │
├─────────────────────┼───────────────────┼────────────┼───────────────────┤
│ dense (Dense)       │ (None, 512)       │  4,194,816 │ flatten[0][0]     │
├─────────────────────┼───────────────────┼────────────┼───────────────────┤
│ batch_normalizatio… │ (None, 512)       │      2,048 │ dense[0][0]       │
│ (BatchNormalizatio… │                   │            │                   │
├─────────────────────┼───────────────────┼────────────┼───────────────────┤
│ dropout (Dropout)   │ (None, 512)       │          0 │ batch_normalizat… │
├─────────────────────┼───────────────────┼────────────┼───────────────────┤
│ dense_1 (Dense)     │ (None, 256)       │    131,328 │ dropout[0][0]     │
├─────────────────────┼───────────────────┼────────────┼───────────────────┤
│ batch_normalizatio… │ (None, 256)       │      1,024 │ dense_1[0][0]     │
│ (BatchNormalizatio… │                   │            │                   │
├─────────────────────┼───────────────────┼────────────┼───────────────────┤
│ dropout_1 (Dropout) │ (None, 256)       │          0 │ batch_normalizat… │
├─────────────────────┼───────────────────┼────────────┼───────────────────┤
│ ctrl (Dense)        │ (None, 300)       │     77,100 │ dropout_1[0][0]   │
├─────────────────────┼───────────────────┼────────────┼───────────────────┤
│ ctrl_net (Reshape)  │ (None, 10, 10, 3) │          0 │ ctrl[0][0]        │
└─────────────────────┴───────────────────┴────────────┴───────────────────┘
 Total params: 10,989,356 (41.92 MB)
 Trainable params: 10,985,004 (41.90 MB)
 Non-trainable params: 4,352 (17.00 KB)
2025-06-17 17:55:50.503440: I tensorflow/core/kernels/data/tf_record_dataset_op.cc:381] TFRecordDataset `buffer_size` is unspecified, default to 262144
Epoch 1/20
I0000 00:00:1750175759.058847 1162021 cuda_dnn.cc:529] Loaded cuDNN version 90800
…
